…
'C', 'H', 'H', 'H', 'H', 'H']
2025-07-31 08:53:40 | 696 | INFO | OLED(QSAR)-oled | Output directory already exists: ./exp_oled_test_plqy_e_ad_homo_lumo_SAT_OLED_Model_molecule_multilabel_regression_40_0.0002_8_10_r2_default_0.5_default_auto_True_1_linear_AdamW_42_42
2025-07-31 08:53:40 | 697 | INFO | OLED(QSAR)-oled | Warning: Overwrite output directory: ./exp_oled_test_plqy_e_ad_homo_lumo_SAT_OLED_Model_molecule_multilabel_regression_40_0.0002_8_10_r2_default_0.5_default_auto_True_1_linear_AdamW_42_42
2025-07-31 08:53:43 | 676 | INFO | OLED(QSAR)-oled | Model: 
SAT_OLED_Model(
  (embed_tokens): Embedding(31, 512, padding_idx=0)
  (gpe_proj): NonLinearHead(
    (linear1): Linear(in_features=128, out_features=128, bias=True)
    (linear2): Linear(in_features=128, out_features=64, bias=True)
  )
  (dpe): DistanceExtractor(
    (means): Embedding(1, 128)
    (stds): Embedding(1, 128)
    (mul): Embedding(961, 1)
    (bias): Embedding(961, 1)
  )
  (ape): AngleExtractor(
    (linear1): Linear(in_features=64, out_features=128, bias=True)
    (linear2): Linear(in_features=128, out_features=64, bias=True)
  )
  (classification_head): MaterialAttributePredictorHead(
    (dense): Linear(in_features=512, out_features=512, bias=True)
    (dropout): Dropout(p=0, inplace=False)
    (out_proj): Linear(in_features=512, out_features=4, bias=True)
  )
  (encoder): MaterialStructureEncoder(
    (model): BertEncoder(
      (layer): ModuleList(
        (0-17): 18 x BertLayer(
          (attention): BertAttention(
            (output): BertSelfOutput(
              (dense): Linear(in_features=512, out_features=512, bias=True)
              (LayerNorm): DyT((512,), eps=1e-12, elementwise_affine=True)
              (dropout): Dropout(p=0.1, inplace=False)
            )
            (attention): SelfAttention(
              (query): Linear(in_features=512, out_features=512, bias=True)
              (key): Linear(in_features=512, out_features=512, bias=True)
              (value): Linear(in_features=512, out_features=512, bias=True)
              (dropout): Dropout(p=0.1, inplace=False)
            )
          )
          (intermediate): BertIntermediate(
            (dense): Linear(in_features=512, out_features=3072, bias=True)
            (intermediate_act_fn): SwigLU()
          )
          (output): BertOutput(
            (dense): Linear(in_features=3072, out_features=512, bias=True)
            (LayerNorm): DyT((512,), eps=1e-12, elementwise_affine=True)
            (dropout): Dropout(p=0.1, inplace=False)
          )
        )
      )
    )
    (emb_layer_norm): DyT((512,), eps=1e-05, elementwise_affine=True)
  )
)
2025-07-31 08:53:43 | 287 | INFO | OLED(QSAR)-oled | start test OLED QM BY 3D-SAT-OLED-Model:SAT_OLED_Model
2025-07-31 08:53:46 | 551 | INFO | OLED(QSAR)-oled | load model success!
…
