…
2025-07-31 08:53:54 | 760 | INFO | OLED(QSAR)-qm9 | [[ … 2025-07-31 08:53:54 | 761 | INFO | OLED(QSAR)-qm9 | ['C', 'C', 'C', 'C', 'C', 'C', 'C', 'C', 'N', 'H', 'H', 'H', 'H', 'H', 'H', 'H', 'H', 'H', 'H', 'H', 'H', 'H']
2025-07-31 08:53:55 | 677 | INFO | OLED(QSAR)-qm9 | Output directory already exists: ./exp_QM9_test_homo_lumo_gap_SAT_OLED_Model_molecule_multilabel_regression_50_0.0001_128_20_r2_default_0.2_default_auto_True_1_linear_AdamW_42_42
2025-07-31 08:53:55 | 678 | INFO | OLED(QSAR)-qm9 | Warning: Overwrite output directory: ./exp_QM9_test_homo_lumo_gap_SAT_OLED_Model_molecule_multilabel_regression_50_0.0001_128_20_r2_default_0.2_default_auto_True_1_linear_AdamW_42_42
2025-07-31 08:53:56 | 657 | INFO | OLED(QSAR)-qm9 | Model: 
SAT_OLED_Model(
  (embed_tokens): Embedding(31, 512, padding_idx=0)
  (gpe_proj): NonLinearHead(
    (linear1): Linear(in_features=128, out_features=128, bias=True)
    (linear2): Linear(in_features=128, out_features=64, bias=True)
  )
  (dpe): DistanceExtractor(
    (means): Embedding(1, 128)
    (stds): Embedding(1, 128)
    (mul): Embedding(961, 1)
    (bias): Embedding(961, 1)
  )
  (ape): AngleExtractor(
    (linear1): Linear(in_features=64, out_features=128, bias=True)
    (linear2): Linear(in_features=128, out_features=64, bias=True)
  )
  (classification_head): MaterialAttributePredictorHead(
    (dense): Linear(in_features=512, out_features=512, bias=True)
    (dropout): Dropout(p=0, inplace=False)
    (out_proj): Linear(in_features=512, out_features=3, bias=True)
  )
  (encoder): MaterialStructureEncoder(
    (model): BertEncoder(
      (layer): ModuleList(
        (0-17): 18 x BertLayer(
          (attention): BertAttention(
            (output): BertSelfOutput(
              (dense): Linear(in_features=512, out_features=512, bias=True)
              (LayerNorm): DyT((512,), eps=1e-12, elementwise_affine=True)
              (dropout): Dropout(p=0.1, inplace=False)
            )
            (attention): SelfAttention(
              (query): Linear(in_features=512, out_features=512, bias=True)
              (key): Linear(in_features=512, out_features=512, bias=True)
              (value): Linear(in_features=512, out_features=512, bias=True)
              (dropout): Dropout(p=0.1, inplace=False)
            )
          )
          (intermediate): BertIntermediate(
            (dense): Linear(in_features=512, out_features=3072, bias=True)
            (intermediate_act_fn): SwigLU()
          )
          (output): BertOutput(
            (dense): Linear(in_features=3072, out_features=512, bias=True)
            (LayerNorm): DyT((512,), eps=1e-12, elementwise_affine=True)
            (dropout): Dropout(p=0.1, inplace=False)
          )
        )
      )
    )
    (emb_layer_norm): DyT((512,), eps=1e-05, elementwise_affine=True)
  )
)
2025-07-31 08:53:56 | 291 | INFO | OLED(QSAR)-qm9 | start test QM9 BY 3D-SAT-OLED-Model:SAT_OLED_Model
2025-07-31 08:53:57 | 535 | INFO | OLED(QSAR)-qm9 | load model success!
…
